policy.pt (torch, 2184 bytes, 3 tensors)

net.0.weight f4 [16, 2]
0	0x3e297b03	0.16550831
1	0x3e6601cc	0.22461623
2	0x3f722bfc	0.94598365
3	0x3f799208	0.9748845
4	0x3e0e8869	0.13919224
5	0x3ee8ed75	0.45493665
6	0x3ee5dd2a	0.44895297
7	0x3ee14381	0.43996814
8	0x3f1f6f12	0.62278855
9	0x3f12cc5e	0.5734309
10	0x3cd102f2	0.0255141
11	0x3c3dbc3a	0.011580521
12	0x3ea77b77	0.32711384
13	0x3cc9109a	0.024544049
14	0x3f30b1b7	0.6902117
15	0x3ef4e6d9	0.47832373
16	0x3f14556e	0.57942855
17	0x3f854595	1.041186
18	0x3f536262	0.82571995
19	0x3efdb861	0.49554732
20	0x3ef6d512	0.48209435
21	0x3ef0a445	0.47000328
22	0x3f83efe0	1.0307579
23	0x3f14fb67	0.5819611
24	0x3f376a46	0.71646535
25	0x3f2c45c2	0.6729394
26	0x3f4fc8b8	0.8116565
27	0x3f7db064	0.99097276
28	0x3f03b89c	0.51453567
29	0x3f253a39	0.64541966
30	0x3f86dd09	1.0536205
31	0x3f68f8a6	0.9100441

net.0.bias f4 [16]
0	0xbf0772a6	-0.52909315
1	0x3ed6c87e	0.41949838
2	0x3d7f5507	0.062336948
3	0x3ebecc4d	0.37265244
4	0x3f6ae303	0.9175264
5	0xbe51d051	-0.20489623
6	0xbeee61a0	-0.46558857
7	0x3f841686	1.0319374
8	0x3f39f82f	0.72644323
9	0x3f1865ac	0.5953014
10	0x3f3f66ae	0.7476605
11	0x3f3c1004	0.7346194
12	0x3f45ea41	0.7731057
13	0x3ea01637	0.3126695
14	0x3f885c91	1.0653249
15	0x3f712dbe	0.9421042

net.2.weight f4 [1, 16]
0	0xbd3492f8	-0.044085473
1	0x3ed4a1cb	0.41529688
2	0x3de4cb4b	0.111715876
3	0x3d2d98ef	0.042382177
4	0x3e958dca	0.2920974
5	0xbdf243dc	-0.118293494
6	0xbe6fe836	-0.23428425
7	0x3f1cf58d	0.6131218
8	0x3ee1e584	0.4412042
9	0x3f1e31e6	0.6179489
10	0x3f0aff95	0.5429624
11	0x3ee1ee31	0.44127038
12	0x3f104302	0.56352246
13	0x3f07297b	0.5279767
14	0x3f0e4def	0.5558767
15	0x3ed2b881	0.4115639
