policy.pt (torch, 2184 bytes, 3 tensors)

net.0.weight f4 [16, 2]
00000000: 225e 213f 7087 6e3f 14a8 363f 6df2 f73e
00000010: e6a9 b63e 4e80 893d 8898 343f a249 f63e
00000020: cad0 803f ad58 5d3f aeca 613f e21a 6b3f
00000030: 34f4 833f b48f 653f 9402 1b3f 28a1 753f
00000040: ae65 603f ba78 063f c937 203f 0900 6f3f
00000050: 4363 e03e add4 a03e 5a1a 6a3e 0900 0000
00000060: a8a2 2e3f ca30 e53e 6dce 3a3f e390 903f
00000070: dbd9 6d3d 624d 1c3b 16f2 7b3f 2cd1 383f
0.6303426 0.9317541 0.71350217 0.48427144 0.35676497 0.06713925 0.70545244 0.48103052
1.0063717 0.86463434 0.8819989 0.91837895 1.03089 0.896724 0.6055081 0.9594903
0.8765515 0.52527964 0.6258512 0.9335943 0.4382573 0.3141226 0.22861615 1.3e-44
0.68216944 0.44763786 0.7297123 1.1294216 0.05806909 0.0023849835 0.9841627 0.7219417

net.0.bias f4 [16]
00000000: 51bf 363f 2c3c 9d3e b7b0 edbe 5bb7 d33e
00000010: 283e 7f3f 0f0d 943f 0c56 483f e38d 6b3f
00000020: d4cd 103f feea 843e 7762 44bf f49f 73be
00000030: a1a4 083f ce78 1f3f 2285 5f3c 2f09 c03e
0.71385676 0.3070997 -0.46423885 0.41350827 0.9970422 1.1566485 0.782563 0.92013377
0.5656407 0.25960535 -0.76712745 -0.23791486 0.53376204 0.6229371 0.013642581 0.37507007

net.2.weight f4 [1, 16]
00000000: dbe5 d63e e23e 323f 52f3 35be bb0d 213f
00000010: b9bf d13e 1fd0 ee3e fccd d43e 65a4 8b3e
00000020: 6de3 123f 8c91 0a3f 295b 03bd 86b9 77bd
00000030: ba9c 513e 7276 ca3e a8de 323c f5ee 013f
0.4197224 0.696272 -0.177686 0.62911576 0.40966585 0.4664316 0.41563404 0.2727386
0.57378274 0.54128337 -0.03206936 -0.060479663 0.20469943 0.39543492 0.010917343 0.50755244
